…
          Normalization will have a very positive impact; but for deeper networks it can make a
          tremendous difference.                                      
          Let’s display the model summary:                            
            >>> model.summary()                                       
            Model: "sequential_3"                                     
            _________________________________________________________________
            Layer (type)     Output Shape    Param #                  
            =================================================================
            flatten_3 (Flatten) (None, 784)  0                        
            _________________________________________________________________
            batch_normalization_v2 (Batc (None, 784) 3136             
            _________________________________________________________________
            dense_50 (Dense) (None, 300)     235500                   
            _________________________________________________________________
            batch_normalization_v2_1 (Ba (None, 300) 1200             
            _________________________________________________________________
            dense_51 (Dense) (None, 100)     30100                    
            _________________________________________________________________
            batch_normalization_v2_2 (Ba (None, 100) 400              
            _________________________________________________________________
            dense_52 (Dense) (None, 10)      1010                     
            =================================================================
            Total params: 271,346                                     
            Trainable params: 268,978                                 
            Non-trainable params: 2,368                               
          As you can see, each BN layer adds four parameters per input: γ, β, μ, and σ (for
…
